…
ow your data gets transformed at each stage of the model. This is useful for debugging. Note that the output shape displayed for each layer includes the batch size . Here the batch size is None, which indicates our model can process batches of any size. model.summary() Model: \"functional_1\" _________________________________________________________________ Layer (type) Output Shape Param # ================================================================= input_1 (InputLayer) [(None, None, None, 3)] 0 _________________________________________________________________ center_crop_1 (CenterCrop) (None, 150, 150, 3) 0 _________________________________________________________________ rescaling_1 (Rescaling) (None, 150, 150, 3) 0 _________________________________________________________________ conv2d (Conv2D) (None, 148, 148, 32) 896 _________________________________________________________________ max_pooling2d (MaxPooling2D) (None, 49, 49, 32) 0 _________________________________________________________________ conv2d_1 (Conv2D) (None, 47, 47, 32) 9248 _________________________________________________________________ max_pooling2d_1 (MaxPooling2 (None, 15, 15, 32) 0 _________________________________________________________________ conv2d_2 (Conv2D) (None, 13, 13, 32) 9248 _________________________________________________________________ global_average_pooling2d (Gl (None, 32) 0 _________________________________________________________________ dense (Dense) (None, 10) 330 ================================================================= Total params: 19,722 Trainable params: 19,722 Non-trainable params: 0 _________________________________________________________________ The Functional API also makes it easy to build models that have multiple inputs (for instance, an image and its metadata) or multiple outputs (for instance, predicting the class of the image and th
…
 NumPy data\") history = model.fit(x_train, y_train, batch_size=batch_size, epochs=1) # Train the model for 1 epoch using a dataset dataset = tf.data.Dataset.from_tensor_slices((x_train, y_train)).batch(batch_size) print(\"Fit on Dataset\") history = model.fit(dataset, epochs=1) Model: \"functional_3\" _________________________________________________________________ Layer (type) Output Shape Param # ================================================================= input_2 (InputLayer) [(None, 28, 28)] 0 _________________________________________________________________ rescaling_2 (Rescaling) (None, 28, 28) 0 _________________________________________________________________ flatten (Flatten) (None, 784) 0 _________________________________________________________________ dense_1 (Dense) (None, 128) 100480 _________________________________________________________________ dense_2 (Dense) (None, 128) 16512 _________________________________________________________________ dense_3 (Dense) (None, 10) 1290 ================================================================= Total params: 118,282 Trainable params: 118,282 Non-trainable params: 0 _________________________________________________________________ Fit on NumPy data 938/938 [==============================] - 1s 1ms/step - loss: 0.2671 Fit on Dataset 938/938 [==============================] - 1s 1ms/step - loss: 0.1156 The fit() call returns
…
